…
odel.add(Dropout(0.5))\n","\n","cnn_model.add(Dense(units = 2, activation = 'softmax'))\n","cnn_model.compile(loss = 'categorical_crossentropy', \n","                  optimizer = keras.optimizers.Adam(lr = 0.001), metrics = ['accuracy'])\n","cnn_model.summary()"],"execution_count":null,"outputs":[{"output_type":"stream","text":["Model: \"sequential_13\"\n","_________________________________________________________________\n","Layer (type)                 Output Shape              Param #   \n","=================================================================\n","conv2d_111 (Conv2D)          (None, 12, 12, 16)        160       \n","_________________________________________________________________\n","batch_normalization_111 (Bat (None, 12, 12, 16)        64        \n","_________________________________________________________________\n","conv2d_112 (Conv2D)          (None, 12, 12, 16)        2320      \n","_________________________________________________________________\n","batch_normalization_112 (Bat (None, 12, 12, 16)        64        \n","_________________________________________________________________\n","conv2d_113 (Conv2D)          (None, 12, 12, 16)        2320      \n","_________________________________________________________________\n","batch_normalization_113 (Bat (None, 12, 12, 16)        64        \n","_________________________________________________________________\n","conv2d_114 (Conv2D)          (None, 6, 6, 32)          4640      \n","_________________________________________________________________\n","batch_normalization_114 (Bat (None, 6, 6, 32)          128       \n","_________________________________________________________________\n","conv2d_115 (Conv2D)          (None, 6, 6, 16)          4624      \n","_________________________________________________________________\n","batch_normalization_115 (Bat (None, 6, 6, 16)          64        \n","_________________________________________________________________\n","conv2d_116 (Conv2D)          (None, 6, 6, 32)          4640      \n","_________________________________________________________________\n","batch_normalization_116 (Bat (None, 6, 6, 32)          128       \n","_________________________________________________________________\n","conv2d_117 (Conv2D)          (None, 3, 3, 64)          18496     \n","_________________________________________________________________\n","batch_normalization_117 (Bat (None, 3, 3, 64)          256       \n","_________________________________________________________________\n","conv2d_118 (Conv2D)          (None, 3, 3, 64)          36928     \n","_________________________________________________________________\n","batch_normalization_118 (Bat (None, 3, 3, 64)          256       \n","_________________________________________________________________\n","conv2d_119 (Conv2D)          (None, 3, 3, 64)          36928     \n","_________________________________________________________________\n","batch_normalization_119 (Bat (None, 3, 3, 64)          256       \n","_________________________________________________________________\n","flatten_12 (Flatten)         (None, 576)               0         \n","_________________________________________________________________\n","dense_36 (Dense)             (None, 128)               73856     \n","_________________________________________________________________\n","dropout_24 (Dropout)         (None, 128)               0         \n","_________________________________________________________________\n","dense_37 (Dense)             (None, 128)               16512     \n","_________________________________________________________________\n","dropout_25 (Dropout)         (None, 128)               0         \n","_________________________________________________________________\n","dense_38 (Dense)             (None, 2)                 258       \n","=================================================================\n","Total params: 202,962\n","Trainable params: 202,322\n","Non-trainable params: 640\n","_________________________________________________________________\n"],"name":"stdout"}]},{"cell_type":"code","metadata":{"id":"cAuvrGsFb5Q6","executionInfo":{"status":"ok","timestamp":1601469864896,"user_tz":-540,"elapsed":330788,"u
…
"cnn_model.add(Dropout(0.5))\n","\n","cnn_model.add(Dense(units = 1, activation = 'sigmoid'))\n","cnn_model.compile(loss = 'binary_crossentropy', \n","                  optimizer = keras.optimizers.Adam(lr = 0.001), metrics = ['accuracy'])\n","cnn_model.summary()"],"execution_count":null,"outputs":[{"output_type":"stream","text":["Model: \"sequential_9\"\n","_________________________________________________________________\n","Layer (type)                 Output Shape              Param #   \n","=================================================================\n","conv2d_75 (Conv2D)           (None, 12, 12, 16)        160       \n","_________________________________________________________________\n","batch_normalization_75 (Batc (None, 12, 12, 16)        64        \n","_________________________________________________________________\n","conv2d_76 (Conv2D)           (None, 12, 12, 16)        2320      \n","_________________________________________________________________\n","batch_normalization_76 (Batc (None, 12, 12, 16)        64        \n","_________________________________________________________________\n","conv2d_77 (Conv2D)           (None, 12, 12, 16)        2320      \n","_________________________________________________________________\n","batch_normalization_77 (Batc (None, 12, 12, 16)        64        \n","_________________________________________________________________\n","conv2d_78 (Conv2D)           (None, 6, 6, 32)          4640      \n","_________________________________________________________________\n","batch_normalization_78 (Batc (None, 6, 6, 32)          128       \n","_________________________________________________________________\n","conv2d_79 (Conv2D)           (None, 6, 6, 16)          4624      \n","_________________________________________________________________\n","batch_normalization_79 (Batc (None, 6, 6, 16)          64        \n","_________________________________________________________________\n","conv2d_80 (Conv2D)           (None, 6, 6, 32)          4640      \n","_________________________________________________________________\n","batch_normalization_80 (Batc (None, 6, 6, 32)          128       \n","_________________________________________________________________\n","conv2d_81 (Conv2D)           (None, 3, 3, 64)          18496     \n","_________________________________________________________________\n","batch_normalization_81 (Batc (None, 3, 3, 64)          256       \n","_________________________________________________________________\n","conv2d_82 (Conv2D)           (None, 3, 3, 64)          36928     \n","_________________________________________________________________\n","batch_normalization_82 (Batc (None, 3, 3, 64)          256       \n","_________________________________________________________________\n","conv2d_83 (Conv2D)           (None, 3, 3, 64)          36928     \n","_________________________________________________________________\n","batch_normalization_83 (Batc (None, 3, 3, 64)          256       \n","_________________________________________________________________\n","flatten_8 (Flatten)          (None, 576)               0         \n","_________________________________________________________________\n","dense_24 (Dense)             (None, 128)               73856     \n","_________________________________________________________________\n","dropout_16 (Dropout)         (None, 128)               0         \n","_________________________________________________________________\n","dense_25 (Dense)             (None, 128)               16512     \n","_________________________________________________________________\n","dropout_17 (Dropout)         (None, 128)               0         \n","_________________________________________________________________\n","dense_26 (Dense)             (None, 1)                 129       \n","=================================================================\n","Total params: 202,833\n","Trainable params: 202,193\n","Non-trainable params: 640\n","_________________________________________________________________\n"],"name":"stdout"}]},{"cell_type":"code","metadata":{"id":"wRvu6BIJw6An","executionInfo":{"status":"ok","timestamp":1601468177450,"user_tz":-540,"elapsed":361108,"u
…
