…
0},"executionInfo":{"status":"ok","timestamp":1599724862672,"user_tz":-540,"elapsed":934,"user":{"displayName":"‍김도윤[ 학부재학 / 산업경영공학부 ]","photoUrl":"","userId":"10791284398836833218"}},"outputId":"e56adeb6-3446-4858-f4d8-8bf8705eb55f"},"source":["cnn_model.summary()"],"execution_count":37,"outputs":[{"output_type":"stream","text":["Model: \"sequential_2\"\n","_________________________________________________________________\n","Layer (type)                 Output Shape              Param #   \n","=================================================================\n","conv2d_8 (Conv2D)            (None, 30, 30, 64)        1792      \n","_________________________________________________________________\n","conv2d_9 (Conv2D)            (None, 28, 28, 64)        36928     \n","_________________________________________________________________\n","max_pooling2d_2 (MaxPooling2 (None, 14, 14, 64)        0         \n","_________________________________________________________________\n","dropout_4 (Dropout)          (None, 14, 14, 64)        0         \n","_________________________________________________________________\n","conv2d_10 (Conv2D)           (None, 12, 12, 128)       73856     \n","_________________________________________________________________\n","conv2d_11 (Conv2D)           (None, 10, 10, 128)       147584    \n","_________________________________________________________________\n","average_pooling2d_2 (Average (None, 5, 5, 128)         0         \n","_________________________________________________________________\n","dropout_5 (Dropout)          (None, 5, 5, 128)         0         \n","_________________________________________________________________\n","flatten_2 (Flatten)          (None, 3200)              0         \n","_________________________________________________________________\n","dense_6 (Dense)              (None, 1024)              3277824   \n","_________________________________________________________________\n","dense_7 (Dense)              (None, 1024)              1049600   \n","_________________________________________________________________\n","dense_8 (Dense)              (None, 10)                10250     \n","=================================================================\n","Total params: 4,597,834\n","Trainable params: 4,597,834\n","Non-trainable params: 0\n","_________________________________________________________________\n"],"name":"stdout"}]},{"cell_type":"markdown","metadata":{"id":"pUDjpWiEJZXB","colab_type":"text"},"source":["Batch size를 정해주지 않았기 때문에 Output shape에 None으로 표시 됨"]},{
…
4, activation = 'relu'))\n","\n","cnn_model.add(Dense(units = 10, activation = 'softmax'))\n","cnn_model.compile(loss = 'categorical_crossentropy', \n","                  optimizer = keras.optimizers.Adam(lr = 0.001), metrics = ['accuracy'])\n","cnn_model.summary()"],"execution_count":51,"outputs":[{"output_type":"stream","text":["Model: \"sequential_3\"\n","_________________________________________________________________\n","Layer (type)                 Output Shape              Param #   \n","=================================================================\n","conv2d_12 (Conv2D)           (None, 32, 32, 64)        1792      \n","_________________________________________________________________\n","batch_normalization (BatchNo (None, 32, 32, 64)        256       \n","_________________________________________________________________\n","conv2d_13 (Conv2D)           (None, 32, 32, 64)        36928     \n","_________________________________________________________________\n","batch_normalization_1 (Batch (None, 32, 32, 64)        256       \n","_________________________________________________________________\n","max_pooling2d_3 (MaxPooling2 (None, 16, 16, 64)        0         \n","_________________________________________________________________\n","dropout_6 (Dropout)          (None, 16, 16, 64)        0         \n","_________________________________________________________________\n","conv2d_14 (Conv2D)           (None, 16, 16, 128)       73856     \n","_________________________________________________________________\n","batch_normalization_2 (Batch (None, 16, 16, 128)       512       \n","_________________________________________________________________\n","conv2d_15 (Conv2D)           (None, 16, 16, 128)       147584    \n","_________________________________________________________________\n","batch_normalization_3 (Batch (None, 16, 16, 128)       512       \n","_________________________________________________________________\n","max_pooling2d_4 (MaxPooling2 (None, 8, 8, 128)         0         \n","_________________________________________________________________\n","dropout_7 (Dropout)          (None, 8, 8, 128)         0         \n","_________________________________________________________________\n","flatten_3 (Flatten)          (None, 8192)              0         \n","_________________________________________________________________\n","dense_9 (Dense)              (None, 1024)              8389632   \n","_________________________________________________________________\n","dense_10 (Dense)             (None, 1024)              1049600   \n","_________________________________________________________________\n","dense_11 (Dense)             (None, 10)                10250     \n","=================================================================\n","Total params: 9,711,178\n","Trainable params: 9,710,410\n","Non-trainable params: 768\n","_________________________________________________________________\n"],"name":"stdout"}]},{"cell_type":"markdown","metadata":{"id":"EvKnTeN2ak3G","colab_type":"text"},"source":["val accuracy와 train acc의 차이가 유의미하게 나타나서 드롭아웃 효과를 줄임"]
…
 activation = 'relu'))\n","\n","cnn_model.add(Dense(units = 10, activation = 'softmax'))\n","cnn_model.compile(loss = 'categorical_crossentropy', \n","                  optimizer = keras.optimizers.Adagrad(lr = 0.01), metrics = ['accuracy'])\n","cnn_model.summary()"],"execution_count":64,"outputs":[{"output_type":"stream","text":["Model: \"sequential_5\"\n","_________________________________________________________________\n","Layer (type)                 Output Shape              Param #   \n","=================================================================\n","conv2d_20 (Conv2D)           (None, 32, 32, 128)       3584      \n","_________________________________________________________________\n","conv2d_21 (Conv2D)           (None, 32, 32, 128)       147584    \n","_________________________________________________________________\n","batch_normalization_6 (Batch (None, 32, 32, 128)       512       \n","_________________________________________________________________\n","max_pooling2d_7 (MaxPooling2 (None, 16, 16, 128)       0         \n","_________________________________________________________________\n","dropout_10 (Dropout)         (None, 16, 16, 128)       0         \n","_________________________________________________________________\n","conv2d_22 (Conv2D)           (None, 16, 16, 128)       147584    \n","_________________________________________________________________\n","conv2d_23 (Conv2D)           (None, 16, 16, 128)       147584    \n","_________________________________________________________________\n","batch_normalization_7 (Batch (None, 16, 16, 128)       512       \n","_________________________________________________________________\n","max_pooling2d_8 (MaxPooling2 (None, 8, 8, 128)         0         \n","_________________________________________________________________\n","dropout_11 (Dropout)         (None, 8, 8, 128)         0         \n","_________________________________________________________________\n","flatten_5 (Flatten)          (None, 8192)              0         \n","_________________________________________________________________\n","dense_15 (Dense)             (None, 1024)              8389632   \n","_________________________________________________________________\n","dense_16 (Dense)             (None, 1024)              1049600   \n","_________________________________________________________________\n","dense_17 (Dense)             (None, 10)                10250     \n","=================================================================\n","Total params: 9,896,842\n","Trainable params: 9,896,330\n","Non-trainable params: 512\n","_________________________________________________________________\n"],"name":"stdout"}]},{"cell_type":"markdown","metadata":{"colab_type":"text","id":"LVkCupS2gVjK"},"source":["#### 모델 평가"]},{"cell_type":"code","metadata":{"colab_
…
activation = 'relu'))\n","\n","cnn_model.add(Dense(units = 10, activation = 'softmax'))\n","cnn_model.compile(loss = 'categorical_crossentropy', \n","                  optimizer = keras.optimizers.RMSprop(lr = 0.001), metrics = ['accuracy'])\n","cnn_model.summary()"],"execution_count":70,"outputs":[{"output_type":"stream","text":["Model: \"sequential_6\"\n","_________________________________________________________________\n","Layer (type)                 Output Shape              Param #   \n","=================================================================\n","conv2d_24 (Conv2D)           (None, 32, 32, 128)       3584      \n","_________________________________________________________________\n","conv2d_25 (Conv2D)           (None, 32, 32, 128)       147584    \n","_________________________________________________________________\n","conv2d_26 (Conv2D)           (None, 32, 32, 128)       147584    \n","_________________________________________________________________\n","batch_normalization_8 (Batch (None, 32, 32, 128)       512       \n","_________________________________________________________________\n","max_pooling2d_9 (MaxPooling2 (None, 16, 16, 128)       0         \n","_________________________________________________________________\n","dropout_12 (Dropout)         (None, 16, 16, 128)       0         \n","_________________________________________________________________\n","conv2d_27 (Conv2D)           (None, 16, 16, 128)       147584    \n","_________________________________________________________________\n","conv2d_28 (Conv2D)           (None, 16, 16, 128)       147584    \n","_________________________________________________________________\n","conv2d_29 (Conv2D)           (None, 16, 16, 128)       147584    \n","_________________________________________________________________\n","batch_normalization_9 (Batch (None, 16, 16, 128)       512       \n","_________________________________________________________________\n","max_pooling2d_10 (MaxPooling (None, 8, 8, 128)         0         \n","_________________________________________________________________\n","dropout_13 (Dropout)         (None, 8, 8, 128)         0         \n","_________________________________________________________________\n","flatten_6 (Flatten)          (None, 8192)              0         \n","_________________________________________________________________\n","dense_18 (Dense)             (None, 1024)              8389632   \n","_________________________________________________________________\n","dense_19 (Dense)             (None, 1024)              1049600   \n","_________________________________________________________________\n","dense_20 (Dense)             (None, 10)                10250     \n","=================================================================\n","Total params: 10,192,010\n","Trainable params: 10,191,498\n","Non-trainable params: 512\n","_________________________________________________________________\n"],"name":"stdout"}]},{"cell_type":"markdown","metadata":{"colab_type":"text","id":"gGHjW2NejRPe"},"source":["#### 모델 평가"]},{"cell_type":"code","metadata":{"cola
…
